workspace/model/dqn_cartpole.pth (torch, 72785 bytes, 6 tensors)

network.0.weight f4 [128, 4]
0	0xbe31ba6b	-0.17356269
1	0xbea5296b	-0.32258162
2	0xbde84f49	-0.113432474
3	0xbe5bcb7e	-0.21464345
4	0xbe159cf5	-0.14610656
5	0xbd5fd86f	-0.054649767
6	0xbf378dbf	-0.7170066
7	0x3e4262a4	0.18982941
8	0xbe29a9db	-0.16568701
9	0xbe9503e9	-0.29104546
10	0xbf83fc6b	-1.0311407
11	0xbe661ef6	-0.22472748
12	0xbebcec37	-0.36898968
13	0x3ecd53ec	0.4010309
14	0x3ead3bbf	0.33834645
15	0x3e965aaf	0.2936606
16	0x3ce3603c	0.027755849
17	0x3a1ea317	0.0006051524
18	0xbe25f391	-0.16206194
19	0x3ab6069f	0.0013887471
20	0xbdde7e7d	-0.108639695
21	0xbe9d18b4	-0.3068291
22	0x3e68d585	0.22737701
23	0xbb919e66	-0.0044439314
24	0xbd2c94fa	-0.042134263
25	0x3e80f2ed	0.25185338
26	0x3f157240	0.58377457
27	0x3f0225a7	0.508387
28	0x3de89f19	0.113584705
29	0xbe3762ad	-0.17908736
30	0x3b6ae1c2	0.0035840129
31	0xbd61df1e	-0.05514442
32	0x3e1e896d	0.15482111
33	0xbeb82b6b	-0.35970625
34	0xbdaa87d9	-0.08326692
35	0x3e6db24f	0.2321255
36	0x3e543ea1	0.20727016
37	0x3dd2e7e2	0.102981344
38	0x3f2cbe6c	0.6747806
39	0x3da12b6e	0.07869612
40	0x3e1f684b	0.15567128
41	0xbedd3795	-0.43206468
42	0xbe2b5906	-0.16733178
43	0xbe9038f2	-0.28168446
44	0xbeb2f01e	-0.3494882
45	0x3dab10a0	0.0835278
46	0x3e0e6dbf	0.13909052
47	0x3d1280b7	0.035767283
48	0xbe2cf43c	-0.16890043
49	0x3daee00a	0.08538826
50	0xbdb0368b	-0.08604153
51	0x3e4a5488	0.19758809
52	0xbe8989e6	-0.2686302
53	0xbecb09eb	-0.39656004
54	0xbf1452a1	-0.5793858
55	0xbd197e50	-0.037473977
56	0xbd54b9d0	-0.051935017
57	0x3cdc51a0	0.02689439
58	0xbe2d5b24	-0.16929299
59	0x3cd0b640	0.025477529
60	0x3d519507	0.051167514
61	0xbec10532	-0.37699276
62	0xbf790c70	-0.97284603
63	0xbe9117c7	-0.28338453
64	0x3e598ea7	0.21245824
65	0x3ee93d02	0.45554358
66	0x3d45fa86	0.04833462
67	0x3e411e44	0.18859202
68	0xbec852cf	-0.39125678
69	0xbd1c75a6	-0.038198136
70	0xbe7d12f7	-0.24714266
71	0x3b68898b	0.0035482373
72	0x3e27462f	0.16335367
73	0xbe91f041	-0.28503612
74	0xbf3ff634	-0.7498505
75	0xbeae5505	-0.3404924
76	0x3e2ae246	0.16687879
77	0x3d831401	0.064003
78	0xbf3ceebd	-0.73801786
79	0xbecd04fc	-0.40042865
80	0x3dc73a54	0.09727922
81	0xbeab5ede	-0.33470815
82	0xbe92a20c	-0.28639257
83	0xbc348155	-0.011017163
84	0x3e685992	0.22690418
85	0xbec0244b	-0.3752769
86	0xbf93f4cc	-1.1559081
87	0xbf12db9d	-0.57366353
88	0xbe003439	-0.12519921
89	0x3e98e0b3	0.29858932
90	0x3e2d7bc4	0.16941744
91	0x3d8dc4ea	0.06922324
92	0xbf27550a	-0.65364134
93	0x3d88708c	0.066620916
94	0x3ea97803	0.33099374
95	0x3d81a67d	0.06330583
96	0xbe4795a8	-0.19490683
97	0x3e619fd8	0.22033632
98	0x3ed57758	0.41692615
99	0x3de6a925	0.112627305
100	0x3e2892bf	0.16462229
101	0xbe8cf103	-0.27527627
102	0x3cd0aff2	0.025474522
103	0xbd45e168	-0.048310667
104	0xbecf9921	-0.40546516
105	0xbe004043	-0.12524514
106	0xbeac1f7a	-0.33617765
107	0x3e5f2d22	0.2179456
108	0x3e7261a5	0.23670061
109	0x3eada968	0.3391831
110	0xbf21f1c8	-0.63259554
111	0x3e4027be	0.1876516
112	0xbe269302	-0.16267017
113	0xbce99350	-0.028512627
114	0xbf5d01f6	-0.8633112
115	0x3b95a633	0.0045669316
116	0xbe58d57b	-0.21175186
117	0x3efecaaf	0.4976401
118	0x3f0b6370	0.54448605
119	0x3edd75ff	0.43254086
120	0xbdb7ac3b	-0.08968397
121	0xbdea3a88	-0.11436945
122	0x3ed39f6b	0.41332564
123	0xbe82caa5	-0.2554523
124	0x3ea097ac	0.31365716
125	0xbebf78ac	-0.37396753
126	0xbf1e7613	-0.61898917
127	0x3e2cd5ce	0.16878435
128	0xbe9e0189	-0.30860546
129	0xbd66138d	-0.05617099
130	0x3dc231fe	0.094821915
131	0xbe08294b	-0.13297002
132	0xbd1058d6	-0.03524097
133	0xbe3b1432	-0.18269423
134	0x3e9bb5cf	0.30412146
135	0xbe84755a	-0.25870782
136	0xbe98cf4f	-0.29845664
137	0x3e139f7c	0.14416307
138	0xbf91cb36	-1.139014
139	0x3d1a890b	0.03772835
140	0x3de16f34	0.110075384
141	0xbebb2cd2	-0.36557633
142	0x3e94116b	0.2891954
143	0x3e718351	0.2358525
144	0x3edf2b68	0.43587804
145	0xbf12662d	-0.5718716
146	0xbeea5dc1	-0.45774654
147	0x3e13eff0	0.14446998
148	0x3e918fb8	0.2842996
149	0x3eeb7f37	0.45995495
150	0xbe41b584	-0.18916899
151	0x3e8e5a9d	0.27803507
152	0x3df39526	0.11893682
153	0x3ec69924	0.38788712
154	0x3f30a3c1	0.6899987
155	0x3e6a565f	0.2288451
156	0x3e4f7a6a	0.20261541
157	0x3ea52a5c	0.3225888
158	0xbf2914a9	-0.6604715
159	0xbe53d570	-0.20686889
160	0x3eb13056	0.3460719
161	0xbf20a6a9	-0.62754303
162	0xbf457895	-0.7713712
163	0xbe4d22df	-0.20032834
164	0xbee693df	-0.45034692
165	0x3ef36f55	0.47545877
166	0xbe79584e	-0.24350092
167	0x3ed9ba75	0.42525068
168	0xbea2b145	-0.3177587
169	0x3ed9af0e	0.4251637
170	0x3d3b3569	0.045705233
171	0x3da16f95	0.07882611
172	0x3f0babff	0.5455932
173	0xbd2625b5	-0.040563304
174	0xbd2573e4	-0.040393725
175	0xbeae5db8	-0.34055877
176	0x3eee5298	0.4654739
177	0xbd803877	-0.0626077
178	0xbf4ad95f	-0.7923793
179	0x3d9486b6	0.072522566
180	0xbef2b896	-0.47406453
181	0xbe970735	-0.29497686
182	0xbe4b60ef	-0.19861196
183	0x3c0d575c	0.008626785
184	0x3eca58b0	0.39520788
185	0x3e7cfd94	0.24706107
186	0xbea7a830	-0.32745504
187	0x3d29b781	0.04143477
188	0xbca92d4d	-0.020651484
189	0xbce72a38	-0.028218374
190	0x3ea33fd3	0.31884632
191	0x3ee7171f	0.45134827
192	0x3de9d905	0.11418346
193	0x3defd8fa	0.11711307
194	0x3f6991d9	0.9123817
195	0x3ebd8e46	0.3702261
196	0x3e99203c	0.29907405
197	0x3e19d79b	0.15023653
198	0x3cf8c55b	0.030367544
199	0x3d9b5d05	0.075861014
200	0x3eae19d3	0.34004077
201	0x3e0d88ca	0.13821712
202	0xbe034b84	-0.12821776
203	0x3d5ff057	0.054672565
204	0xbefc5dce	-0.49290317
205	0xbd176e05	-0.036970157
206	0x3f33d032	0.70239556
207	0x3eca244b	0.39480814
208	0xbe71f09b	-0.2362694
209	0x3ebb3242	0.3656178
210	0x3e5e2080	0.21692085
211	0x3de7851f	0.11304688
212	0xbd889a11	-0.06670011
213	0x3ea13015	0.31481996
214	0xbf220d9c	-0.63302016
215	0x3e859f70	0.26098204
216	0xbe4540d5	-0.19263013
217	0xbd963435	-0.073341765
218	0xbeca92ce	-0.39565128
219	0xbe620d0c	-0.2207529
220	0x3e88acd1	0.26694348
221	0xbe9fa188	-0.31177926
222	0xbe610bd9	-0.21977176
223	0x3e7cb276	0.24677452
224	0x3cd433f4	0.02590368
225	0xbc9bf23f	-0.01903641
226	0x3c01cabf	0.007921874
227	0x3eaff852	0.3436914
228	0x3cc9f82a	0.024654467
229	0xbe1443c0	-0.1447897
230	0xbf8b3bad	-1.0877587
231	0xbee7a15e	-0.452403
232	0xbd26754e	-0.040639214
233	0x3ebbbcba	0.36667424
234	0x3e11bf11	0.14233042
235	0xbe7b59c7	-0.24545966
236	0x3f3d71f7	0.7400202
237	0x3e3801fa	0.17969504
238	0xbf402902	-0.7506257
239	0xbe51ab54	-0.20475513
240	0xbe854b8d	-0.26034203
241	0xbdce9b60	-0.10088229
242	0xbf38771a	-0.72056735
243	0xbf183cd4	-0.59467816
244	0xbf108816	-0.5645765
245	0x3de26ce3	0.11055925
246	0xbe9a21af	-0.30103824
247	0x3d835673	0.06412973
248	0x3e75a5c4	0.23989016
249	0x3e980f3e	0.2969913
250	0x3e3d5c13	0.18492155
251	0x3dd03ed2	0.10168232
252	0x3e743327	0.23847638
253	0xbdd271b7	-0.10275596
254	0x3f44fa61	0.7694455
255	0x3eec9e5f	0.46214578

network.0.bias f4 [128]
0	0x3e1ab41f	0.15107773
1	0x3e54ba6a	0.20774236
2	0xbf05e973	-0.5230934
3	0x3e04c08d	0.12964077
4	0xbe47b9f3	-0.19504528
5	0xbeead2cc	-0.4586395
6	0xbeb5d865	-0.35516658
7	0xbe2fe8b6	-0.17178616
8	0x3f212fd3	0.629636
9	0xbede8950	-0.43464136
10	0x3e105177	0.14093576
11	0xbf04a1fc	-0.5180967
12	0x3ed7eb7d	0.4217185
13	0x3e98c83e	0.29840273
14	0xbeacff3c	-0.33788478
15	0xbe2486c8	-0.1606704
16	0x3ec2f726	0.38079184
17	0xbf468962	-0.7755338
18	0xbe910045	-0.28320518
19	0xbe6062ae	-0.21912643
20	0x3f225de7	0.63424534
21	0xbede2d9d	-0.43394175
22	0x3edaaa36	0.42707986
23	0xbd37075b	-0.04468475
24	0x3e1c71ab	0.15277736
25	0x3e2d64a1	0.16932918
26	0x3ed69054	0.4190699
27	0x3e82e988	0.25568795
28	0x3e2742b1	0.16334035
29	0xbea981b5	-0.3310677
30	0x3f19aae8	0.6002641
31	0x3f0f23b0	0.5591383
32	0x3ea49751	0.32146695
33	0xbf0a278a	-0.5396658
34	0xbef3b284	-0.47597134
35	0xbeae301b	-0.34021077
36	0xbe0270e2	-0.12738374
37	0xbe588b27	-0.21146832
38	0xbe286c42	-0.16447547
39	0xbe6540ed	-0.22388048
40	0x3e6763ef	0.22596715
41	0x3ef7a70c	0.48369634
42	0x3f083533	0.53206176
43	0xbf0ac938	-0.54213285
44	0x3e09b3c6	0.13447484
45	0x3f035b61	0.5131131
46	0x3eaefb16	0.34175938
47	0xbe90824b	-0.28224406
48	0xbecec313	-0.40383205
49	0xbf189afb	-0.5961148
50	0xbf2e842b	-0.6817042
51	0xbe860c50	-0.2618127
52	0xbee94322	-0.4555903
53	0x3d882d94	0.06649318
54	0xbeee15c6	-0.46500987
55	0x3f00d8b5	0.5033067
56	0x3ee2078b	0.4414638
57	0xbec3755c	-0.38175476
58	0x3ec6323b	0.38710198
59	0xbf1c2793	-0.60997885
60	0xbeda7a89	-0.42671612
61	0x3df3c533	0.11902847
62	0x3e7c0656	0.24611792
63	0xbda257d2	-0.07926907
64	0x3f038c10	0.51385593
65	0xbf0c7468	-0.5486512
66	0x3ee8f9a2	0.45502955
67	0xbe0137c4	-0.12618929
68	0x3ece00d6	0.40235013
69	0xbf6bed04	-0.9215853
70	0xbea388d1	-0.3194032
71	0xbea2cbbb	-0.3179606
72	0x3f11c62b	0.56943005
73	0x3eccd145	0.4000341
74	0x3ed743d7	0.42043945
75	0xbeb2729d	-0.34853068
76	0x3e1f8e79	0.15581693
77	0x3ed2c972	0.41169316
78	0x3f2538c7	0.6453976
79	0xbf0680e0	-0.525404
80	0x3f034d5f	0.51289934
81	0x3e9cc776	0.30620927
82	0xbf23b340	-0.6394539
83	0x3eb7a89a	0.3587082
84	0x3f1e7578	0.61897993
85	0xbf41cbcc	-0.75701594
86	0x3e6936f2	0.22774866
87	0xbe4e5b0b	-0.20151918
88	0x3d8f4fb8	0.06997627
89	0xbed4ed0a	-0.41587096
90	0xbec9838a	-0.3935817
91	0x3f2674e5	0.65022117
92	0xbeb2abee	-0.34896797
93	0x3ea3888c	0.31940114
94	0x3ede468a	0.43413192
95	0xbf1a49ad	-0.6026867
96	0x3ed686fa	0.41899854
97	0x3f10bced	0.5653828
98	0x3d13cc8c	0.036083743
99	0xbee96534	-0.45585024
100	0xbe1b771d	-0.15182157
101	0x3eafbdce	0.34324497
102	0xbcee8028	-0.029113844
103	0x3e0cdd59	0.13756312
104	0xbcd112a7	-0.02552159
105	0x3e8eb94d	0.27875748
106	0x3f08362b	0.53207654
107	0xbed477e1	-0.4149771
108	0xbe920dbb	-0.285261
109	0xbe0f68f6	-0.14004883
110	0x3ea1a0c3	0.31567964
111	0xbf2bf0fd	-0.67164594
112	0x3ebdb2dc	0.3705052
113	0xbda49336	-0.08035891
114	0xbedf6467	-0.43631288
115	0x3d6cd170	0.057816923
116	0xbf2150c7	-0.6301388
117	0xbefc9bce	-0.4933762
118	0x3e3af2ed	0.18256731
119	0x3e904de5	0.2818443
120	0xbf46821c	-0.7754228
121	0x3eb51ba8	0.35372663
122	0x3eb54a3e	0.35408205
123	0x3e912969	0.28351906
124	0xbe630b2a	-0.22172228
125	0x3eb40247	0.35157987
126	0xbf05b077	-0.5222239
127	0xbea65771	-0.32488587

network.2.weight f4 [128, 128]
0	0xbbb947d2	-0.0056543136
1	0x3d96248d	0.0733119
2	0xbc581838	-0.013189368
3	0xbd7cf3d4	-0.06175597
4	0xbd781575	-0.060567338
5	0xbd9d984e	-0.076950654
6	0x3d51a163	0.0511793
7	0x3d3d03fa	0.04614637
8	0xbd49692c	-0.049172565
9	0xbdbc46b0	-0.0919317
10	0xbcca8946	-0.02472366
11	0x3bcdc374	0.0062794033
12	0xbd403fd3	-0.046935868
13	0xbc882a67	-0.016621782
14	0x3d8f057b	0.06983467
15	0xbd79f838	-0.061027735
16	0xba9a11df	-0.0011754594
17	0xbcb66450	-0.02226463
18	0xbd1aec46	-0.037822984
19	0x3d9f9687	0.07792383
20	0x3c7682e5	0.015045856
21	0x3cc8eebc	0.0245279
22	0xbcf0ecf0	-0.029409856
23	0xbd6307a0	-0.055427194
24	0xbd104062	-0.03521765
25	0xbb932adf	-0.0044911946
26	0xbd68537d	-0.056720246
27	0xbd8af073	-0.06784143
28	0xbd011182	-0.031510837
29	0xbd36375c	-0.04448639
30	0xbbdfd5de	-0.006830915
31	0x3b416aa4	0.0029513026
32	0x3c70df2d	0.014701647
33	0xbda41b67	-0.08013039
34	0x3c14c471	0.009080038
35	0x398e5000	0.00027143955
36	0x3d89082d	0.066910125
37	0x3da4581b	0.08024617
38	0xbdb3924b	-0.087681375
39	0x3d984960	0.0743587
40	0xbd09a2be	-0.03360247
41	0x3d04f0e6	0.0324563
42	0xbc99366c	-0.018702708
43	0x3c9e00d8	0.019287512
44	0x3c9516af	0.018199293
45	0xbc1af96b	-0.00945888
46	0xbd0b3dd4	-0.03399451
47	0x3d9a6e14	0.07540527
48	0xbd99b4c1	-0.07505179
49	0x3c98a058	0.018631145
50	0xbd32a0bc	-0.04361032
51	0xbca62cc3	-0.020285016
52	0x3c57c370	0.0131691545
53	0xbc0d05a7	-0.008607305
54	0x3c19737b	0.009365912
55	0xbd98a56c	-0.07453427
56	0xbd8d98a9	-0.06913883
57	0x3c3ee70e	0.011651767
58	0xbda6cbdf	-0.08144354
59	0x3d328e9d	0.043593038
60	0x3cb56193	0.022141254
61	0xbd2eed00	-0.04270649
62	0xbc810d41	-0.01575339
63	0x3d819a07	0.063282065
64	0xbd5c1303	-0.05372907
65	0x3d9c60c1	0.07635642
66	0x3d62c017	0.055358972
67	0x3cc14e31	0.023596855
68	0xbdb54697	-0.088513546
69	0x3cfd6424	0.03093154
70	0x3d1ae4af	0.037815746
71	0xbdac368e	-0.08408843
72	0xbb40fa01	-0.002944589
73	0x3d1124a7	0.035435345
74	0x3d500287	0.05078366
75	0x3d5ac5a2	0.053411134
76	0xbc4aad72	-0.012370454
77	0xbd4cb699	-0.049978826
78	0x3c4358e0	0.011923045
79	0x3ce1b770	0.02755329
80	0x3d7d1fa5	0.061797757
81	0xbd40f2ef	-0.04710668
82	0xbd7f27fc	-0.06229399
83	0x3d2ebc74	0.04266019
84	0x3c54498c	0.012956988
85	0x3b9cfc7d	0.004790841
86	0x3cac68e2	0.021046106
87	0x3d9943f5	0.07483665
88	0xbd4bb52e	-0.049733333
89	0xbd88af1e	-0.06674026
90	0x3c1ffaac	0.009764355
91	0x3d860a4b	0.06544932
92	0x3c3464d6	0.011010369
93	0xbdae9574	-0.085246
94	0x3da22f8d	0.07919226
95	0xbd287dce	-0.0411356
96	0x3c6481cc	0.013946962
97	0x3ca71a9e	0.020398434
98	0xbc9886fd	-0.018619055
99	0xbd9c6920	-0.076372385
100	0xbda84974	-0.08217135
101	0x3da706a6	0.08155565
102	0x3c9a6e7c	0.018851511
103	0x3d9e59b5	0.07731954
104	0xbd68ab0d	-0.05680375
105	0xbba95d5c	-0.0051686
106	0xbcd1e1d5	-0.02562038
107	0xbd129d15	-0.035794336
108	0xbdb8e159	-0.09027357
109	0x3d87de20	0.06634164
110	0xbc85a192	-0.016312394
111	0xbc960518	-0.018312976
112	0xbd17390b	-0.036919635
113	0x3c12e693	0.008966106
114	0xbccfb31f	-0.025353966
115	0x3da14d8c	0.07876119
116	0xbd765c4d	-0.06014662
117	0xbd4ca7f3	-0.049964856
118	0x3b50d49e	0.003186501
119	0x3d7c0f90	0.06153828
120	0xbd88e8cd	-0.06685028
121	0xbda8d370	-0.082434535
122	0xbd667e29	-0.05627266
123	0x3befcc06	0.0073180227
124	0xbdc9f38d	-0.09860907
125	0x3bb58c57	0.0055404115
126	0xbcd486b2	-0.025943134
127	0x3d4f7189	0.050645385
128	0xbcab0519	-0.020876454
129	0xbcc41ed4	-0.023940481
130	0xbf728e44	-0.9474833
131	0xbdf89068	-0.12136918
132	0x3d589962	0.052880652
133	0xbece254b	-0.40262827
134	0xbbe1d43b	-0.006891755
135	0xbd0eaefd	-0.03483485
136	0x3da85b3f	0.08220529
137	0xbec68a20	-0.38777256
138	0x3e192d70	0.1495874
139	0xbf425553	-0.75911444
140	0x3dd98eb3	0.10622921
141	0x3e1db4b2	0.15400961
142	0xbd0d314f	-0.034470852
143	0x3d675737	0.05647966
144	0x3c9fbf04	0.019500263
145	0xbf7a0b8e	-0.9767388
146	0xbecfd4f2	-0.40592152
147	0xbd27ca04	-0.04096414
148	0x3e3b89d3	0.18314295
149	0xbf3dcd20	-0.7414112
150	0x3e2cc2a1	0.1687112
151	0xbe886bce	-0.26644748
152	0x3db98857	0.09059208
153	0x3a4ae416	0.0007739676
154	0x3cc2c8b2	0.02377734
155	0x3ded168e	0.115765676
156	0xbd99992e	-0.0749992
157	0xbe7f0860	-0.24905539
158	0x3dfe388b	0.124131285
159	0x3e14ecd2	0.14543465
160	0x3d0b4ec1	0.034010652
161	0xbde68e81	-0.11257649
162	0xbf21effa	-0.632568
163	0xbe644225	-0.22290857
164	0xbb287588	-0.002570482
165	0x3e19d08b	0.15020959
166	0xbe7f6a37	-0.24942861
167	0x3d0ede64	0.034880057
168	0x3db49c0a	0.088188246
169	0x3dcdd0fd	0.10049627
170	0x3dec0db2	0.1152605
171	0x3db322a8	0.087468445
172	0x3dd869f9	0.10567088
173	0x3de042c1	0.10950232
174	0x3c1b23e4	0.009469006
175	0xbe074674	-0.1321047
176	0xbe79796f	-0.2436273
177	0xbf7dd908	-0.9915929
178	0xbf2b9c86	-0.6703571
179	0xbe2c8f42	-0.16851524
180	0x3c87282d	0.01649865
181	0x3da4e7aa	0.08051999
182	0xbf1523cb	-0.5825774
183	0x3e2a963a	0.1665887
184	0x3e0ba9a3	0.1363893
185	0xbf18a6ed	-0.5962971
186	0x3e037047	0.12835799
187	0xbe25be1f	-0.16185807
188	0xbe631a62	-0.22178033
189	0x3d5dcaa4	0.05414833
190	0x3d748199	0.059693906
191	0xbd70fa38	-0.058832377
192	0x3e474dee	0.19463322
193	0xbed963ac	-0.42458856
194	0x3da70064	0.081543714
195	0xbdecb77b	-0.115584336
196	0x3d32327b	0.043505173
197	0xbf876da3	-1.0580333
198	0xbd53ec02	-0.051738746
199	0xbd98f2ed	-0.074682094
200	0x3d91df19	0.071226306
201	0xbd38c3e7	-0.045108702
202	0x3e0bcb07	0.13651668
203	0xbf5291f8	-0.8225398
204	0x3d25a446	0.040439866
205	0x3cc4abef	0.024007766
206	0x3e29976c	0.16561669
207	0xbf01e639	-0.50741917
208	0x3e51a68b	0.20473687
209	0x3ddb56cf	0.10709917
210	0xbe927732	-0.28606564
211	0x3d0ebcc7	0.034848
212	0x3e32e410	0.17469811
213	0xbf19398f	-0.5985345
214	0x3e513e2b	0.20433871
215	0xbb82f844	-0.0039968807
216	0x3da3ef1f	0.08004593
217	0xbefd62f1	-0.4948955
218	0xbee81013	-0.45324764
219	0x3e5f77ae	0.21822998
220	0xbf04ae4e	-0.5182847
221	0x3d2658aa	0.0406119
222	0x3e0d0f92	0.13775471
223	0xbecd6b2e	-0.40120834
224	0x3e25a5c3	0.16176514
225	0x3e020043	0.12695412
226	0x3e24850d	0.1606638
227	0xbe3f4c66	-0.18681487
228	0xbde713fe	-0.1128311
229	0x3d38046f	0.044926103
230	0xbd51bc97	-0.051205244
231	0xb9d22697	-0.00040083073
232	0x3dbce06b	0.09222492
233	0x3d8810b0	0.06643808
234	0x3e3a9bd8	0.18223512
235	0xbe0fe33d	-0.14051528
236	0xbe501498	-0.20320356
237	0x3d0a8323	0.033816468
238	0x3da0829b	0.07837411
239	0xbe9d14f3	-0.30680045
240	0x3db20d60	0.08693957
241	0xbc814b96	-0.015783112
242	0xbf135818	-0.57556295
243	0xbc4100c8	-0.011779971
244	0xbf17cf58	-0.59300756
245	0xbf7120f5	-0.94190913
246	0x3e11c878	0.14236629
247	0x3d796c54	0.060894325
248	0xbf494ba4	-0.78631043
249	0x3e13b55b	0.1442465
250	0x3d7cb2ff	0.06169414
251	0x3d934cf3	0.07192411
252	0xbe1a7780	-0.15084648
253	0x3d45a96e	0.048257284
254	0xbc2ea4f5	-0.010659446
255	0xbe9afc16	-0.3027045

network.2.bias f4 [128]
0	0xbdbecb6e	-0.09316145
1	0x3e6db50a	0.23213592
2	0x3d8609b7	0.06544822
3	0x3e229ca6	0.15880069
4	0xbd91ec57	-0.071251564
5	0x3c87f15e	0.016594585
6	0x3df7288b	0.1206828
7	0xbd9b8101	-0.07592965
8	0x3e20b3af	0.15693544
9	0x3d2c199a	0.042016603
10	0x3db6e6c0	0.08930731
11	0xbd2631df	-0.040574905
12	0x3e677d77	0.22606455
13	0xbdce6c35	-0.100792326
14	0x3d74e412	0.059787817
15	0x3e08cd51	0.13359572
16	0x3e22af2e	0.15887138
17	0xbd8fa486	-0.07013802
18	0xbd9dabf7	-0.07698815
19	0xbd77ae9e	-0.060469262
20	0x3e181640	0.14852238
21	0x3c8277a7	0.015926195
22	0x3d624d8f	0.055249747
23	0xbd42e464	-0.04758109
24	0xbb587c4a	-0.0033033066
25	0x3e14eaa5	0.14542635
26	0x3e52cddc	0.20586342
27	0x3b668517	0.0035174543
28	0x3c4654b1	0.012105153
29	0xbd91a3f5	-0.071113504
30	0x3d70b419	0.058765505
31	0x3e1d7046	0.1537486
32	0x3d61204c	0.05496244
33	0x3e09c34a	0.13453403
34	0x3debeb8e	0.11519538
35	0x3d31a0e3	0.043366324
36	0x3dfa7a2e	0.12230335
37	0xbdb6d3a5	-0.08927087
38	0xbd97de30	-0.07415426
39	0x3d8fc3c3	0.070197605
40	0x3e6a5272	0.22883013
41	0x3e263563	0.16231303
42	0xbdd29bb2	-0.10283603
43	0x3cf667c2	0.030078772
44	0xbd1c8f4b	-0.038222592
45	0x3da55af8	0.080739915
46	0x3d6f0792	0.05835683
47	0xbd7d29b5	-0.061807353
48	0xbc4c2272	-0.012459384
49	0x3dc7de1c	0.09759161
50	0x3df109d9	0.117694564
51	0x3c2053f8	0.009785645
52	0x3e5812b4	0.21100885
53	0x3e42c8f9	0.19021977
54	0xbd511002	-0.051040657
55	0x3e2399b1	0.15976597
56	0x3db12209	0.0864907
57	0x3e407732	0.1879547
58	0xbd7167ed	-0.058937002
59	0x3dc65d39	0.096857496
60	0x3e02cbfa	0.12773123
61	0xbd8467eb	-0.06465133
62	0x3cc3b7c6	0.023891341
63	0x3d472ac4	0.04862477
64	0xbd0108e4	-0.03150262
65	0xbd82b8c5	-0.06382898
66	0x3e3fdbf1	0.18736245
67	0x3c4a2b99	0.012339496
68	0x3df80080	0.1210947
69	0x3e15519d	0.14581914
70	0xbda1ae31	-0.078945525
71	0xbd39b162	-0.04533518
72	0x3db1c73d	0.0868058
73	0xbda8af26	-0.08236532
74	0x3e61dba5	0.22056444
75	0x3e1fdbd0	0.15611196
76	0xbb361769	-0.002778495
77	0xbdc5fa46	-0.096668765
78	0x3e1a8016	0.15087923
79	0x3dfbcf08	0.122953475
80	0x3d8d7a00	0.06908035
81	0x3e0afa1b	0.1357197
82	0x3de65b62	0.11247899
83	0x3d994df1	0.07485569
84	0xbd17c828	-0.03705612
85	0x3e6a3736	0.22872624
86	0x3da8f604	0.08250049
87	0xbd67d291	-0.056597296
88	0xbcc90f80	-0.024543524
89	0x3d01316b	0.03154127
90	0xbd7c9dda	-0.061673976
91	0x3dac7748	0.084211886
92	0x3d9f764c	0.07786235
93	0x3db961fa	0.09051891
94	0xbd1edf93	-0.038787436
95	0x3e5478bc	0.20749182
96	0xbc59cee2	-0.013293954
97	0x3df53820	0.119735956
98	0x3da9051c	0.08252928
99	0x3e682540	0.2267046
100	0x3e824b9f	0.2544832
101	0x3e6b5ffe	0.22985837
102	0xbd4b1bc4	-0.049587026
103	0xbd35e057	-0.0444034
104	0x3e770364	0.24122387
105	0x3d2d642d	0.042331863
106	0x3e6adc82	0.2293568
107	0x3d5cd0c6	0.05391004
108	0xbc5c0efc	-0.013431307
109	0xbc231e81	-0.009956003
110	0x3dc3f635	0.09568445
111	0x3e67a8ad	0.22622938
112	0xbcc9befa	-0.024627198
113	0x3e2aff90	0.16699052
114	0x3dd63daa	0.1046098
115	0x3dc47aaf	0.095937125
116	0x3e6194b9	0.2202939
117	0x3ddaa612	0.10676207
118	0x3d699e4d	0.057035733
119	0xbd468504	-0.048466697
120	0x3e47403a	0.19458094
121	0x3df47422	0.11936213
122	0xbdc00331	-0.09375609
123	0xbda2c192	-0.07947077
124	0xbdaf598d	-0.08562002
125	0xbd9c5f6b	-0.07635387
126	0x3d8d9483	0.06913092
127	0x3e6ae8d7	0.22940384

network.4.weight f4 [2, 128]
0	0xbc85e80e	-0.016346004
1	0x3eb33856	0.35003918
2	0xbd424375	-0.047427613
3	0x3eb78abe	0.3584804
4	0xbcd3810e	-0.025818374
5	0x3d2cc088	0.0421758
6	0x3eafb572	0.3431812
7	0xbd6d80e6	-0.057984255
8	0x3e893908	0.26801324
9	0xbc8f88ec	-0.017521344
10	0x3ec2baac	0.38033044
11	0xbd7e8977	-0.062142815
12	0x3ec3b687	0.38225195
13	0xbd82c94f	-0.06386053
14	0xbd2810bc	-0.041031584
15	0x3eb23d49	0.34812382
16	0x3e9ebde3	0.31004247
17	0x3c61b69d	0.013776449
18	0x3d34e1a9	0.04416052
19	0xbd763a0f	-0.060113963
20	0x3e6c4f8b	0.23077218
21	0xbc150420	-0.009095222
22	0x3b01c538	0.001980139
23	0xbd4bfdda	-0.04980264
24	0xbc92df66	-0.01792879
25	0x3e8f6eb5	0.2801415
26	0x3e9fa1e1	0.3117819
27	0xbe3a6b56	-0.18205008
28	0xbd4eb13c	-0.050461993
29	0xbd1825ee	-0.037145548
30	0xbd08c2d6	-0.033388935
31	0x3ec1fc45	0.3788778
32	0xbd8baa84	-0.06819633
33	0x3eb28c01	0.3487244
34	0x3e84d5d9	0.25944403
35	0x3e89350e	0.2679829
36	0x3e89b569	0.26896217
37	0xbc8763f0	-0.016527146
38	0xbd6f81fa	-0.058473565
39	0xbd2512ca	-0.04030112
40	0x3ea732b8	0.32655883
41	0x3e8d5ae6	0.27608413
42	0xbf50f845	-0.8162883
43	0xbd8a7a9f	-0.06761669
44	0xbd9a7371	-0.0754155
45	0x3eaeb4e6	0.3412239
46	0xbdb4a161	-0.08819843
47	0x3c8d4538	0.01724492
48	0xbd8e4440	-0.069466114
49	0x3e9e2ea4	0.3089496
50	0x3ea5b083	0.3236123
51	0xbd209475	-0.03920408
52	0x3e9e1711	0.30876973
53	0x3e99c205	0.30030838
54	0xbdc3579c	-0.095381945
55	0x3e9aabe7	0.30209276
56	0x3e9f5fb8	0.31127715
57	0x3eb01308	0.3438952
58	0xbda2f0cd	-0.07956085
59	0x3e8f9517	0.28043434
60	0x3d6595b8	0.056050986
61	0xbcdb25c7	-0.026751412
62	0xbd85874d	-0.06519947
63	0xbd511d01	-0.05105305
64	0xbbecbef0	-0.00722491
65	0xbd855824	-0.06510952
66	0x3ebc1dc1	0.3674145
67	0x3a430504	0.0007439407
68	0x3ea02de5	0.31285015
69	0x3e8b2676	0.2717778
70	0xbd8c31b4	-0.068454176
71	0xbca3636e	-0.019944873
72	0xbe8a5ce6	-0.27024
73	0xbd8117ee	-0.06303392
74	0x3e7e80d5	0.24853833
75	0x3ea4298d	0.3206295
76	0xbd860da8	-0.065455735
77	0x3b145d5e	0.002263866
78	0x3e500731	0.20315243
79	0x3ea5063a	0.32231313
80	0x3ea1e8b8	0.31622863
81	0x3ea7209b	0.32642063
82	0x3e84dd64	0.25950158
83	0xbd57c316	-0.052676283
84	0xbd80ec92	-0.06295122
85	0x3eaf1537	0.34195873
86	0x3ea43359	0.32070425
87	0xbf688e2b	-0.9084193
88	0xbda88a83	-0.08229544
89	0xbd13b0da	-0.03605733
90	0x3d90ff97	0.0708
91	0x3e85ee87	0.26158544
92	0x3ea57efe	0.3232345
93	0x3eaaa196	0.33326405
94	0xbcd584d2	-0.02606431
95	0x3ebcadd5	0.36851373
96	0xbd41db8f	-0.047328528
97	0x3e879a15	0.26484743
98	0x3ea5f301	0.3241196
99	0x3ea3de92	0.32005745
100	0x3e474533	0.19459991
101	0x3e6dc872	0.23220995
102	0xbd6ccc78	-0.057812184
103	0x3cb8317c	0.022484533
104	0x3eb30ec6	0.3497221
105	0x3c97af26	0.018516134
106	0x3eb03b0b	0.34420046
107	0xbd835a95	-0.064137615
108	0x3c2cb8de	0.010542123
109	0x3ce8a1dc	0.028397493
110	0x3e9f6156	0.3112895
111	0x3ea5cb37	0.32381603
112	0xbd4ef25e	-0.050524108
113	0x3e93dc62	0.28879076
114	0x3e825e23	0.25462446
115	0x3eb61eac	0.35570276
116	0x3ead3f3d	0.3383731
117	0x3ea000b5	0.3125054
118	0x3c022575	0.007943501
119	0xbcbb6a1c	-0.022877745
120	0x3e8b141e	0.27163786
121	0x3eb7fafc	0.35933673
122	0xbca60f7f	-0.020271061
123	0x3da38eb5	0.079862036
124	0x3b3d2ee3	0.0028867058
125	0xbd3a7e99	-0.04553089
126	0xbd9436ba	-0.07237001
127	0x3eb72a33	0.35774383
128	0x3d4b79cd	0.049676705
129	0x3e9e5ebd	0.30931655
130	0x3d2bb11a	0.041916944
131	0x3eb1c7ef	0.3472285
132	0x3a8014d5	0.0009771833
133	0xbd73dbb8	-0.059535712
134	0x3e71c06c	0.2360856
135	0x3c0cd2e0	0.008595198
136	0x3ea007e6	0.31256026
137	0xbc49123e	-0.012272416
138	0x3eaf8895	0.3428389
139	0xbd1a8c04	-0.037731186
140	0x3eaaa27a	0.33327085
141	0x3cc713a8	0.024301365
142	0xbd383950	-0.044976532
143	0x3ea00cbd	0.3125972
144	0x3eab4371	0.3344989
145	0xbceff946	-0.029293668
146	0xbc4df9c2	-0.012571754
147	0xbd011484	-0.031513706
148	0x3eccec17	0.40023872
149	0xbd493cc5	-0.04913022
150	0xbd6069f2	-0.054788537
151	0xbd32affc	-0.043624863
152	0x3ba6555e	0.0050760945
153	0x3e8f9829	0.28045776
154	0x3e96241a	0.29324418
155	0xbe7fb9cd	-0.24973221
156	0xbca80f64	-0.020515151
157	0x3c3a6a5f	0.0113779
158	0x3d432f43	0.047652494
159	0x3e9b0a3c	0.30281246
160	0xbd8b5685	-0.06803612
161	0x3e7b59ee	0.24546024
162	0x3ea325a9	0.3186467
163	0xbe8930f2	-0.26795155
164	0x3e7d17ea	0.24716154
165	0x3d94b911	0.07261861
166	0xbd539c87	-0.051662948
167	0x3d4d46aa	0.05011622
168	0x3e7b857c	0.24562639
169	0x3ea2c9f1	0.31794694
170	0xbf432e96	-0.7624296
171	0x3c93e27d	0.018052334
172	0x3c88a9af	0.016682474
173	0x3e91e4bc	0.28494823
174	0x3ceabaa8	0.028653458
175	0x3d7747ea	0.060371317
176	0xbd1b15ff	-0.037862774
177	0x3ea80754	0.3281809
178	0x3ea107a7	0.3145115
179	0xbd9ef310	-0.07761204
180	0x3e56d33f	0.20979021
181	0x3e8fd659	0.28093222
182	0xbe9ed553	-0.31022128
183	0x3ea1fcec	0.31638277
184	0x3e837de6	0.2568199
185	0x3e735d18	0.23765981
186	0xbce29e55	-0.02766339
187	0x3e9a5fa6	0.301511
188	0x3e5d3adb	0.21604483
189	0xbca2d9dd	-0.019879276
190	0x3d7bd8e9	0.06148616
191	0xbcf178f5	-0.029476622
192	0xbd62d8e9	-0.055382643
193	0x3d29af06	0.04142668
194	0x3ec404de	0.38284963
195	0xbe7ab12b	-0.24481647
196	0x3ea06cce	0.3133301
197	0x3ebca293	0.36842784
198	0x381a4800	3.6783516e-05
199	0xbd0eb966	-0.03484478
200	0x3e72174f	0.23641704
201	0x3cb354e5	0.021891067
202	0x3e9dd3a4	0.3082553
203	0x3e8690e5	0.2628242
204	0x3d88ad68	0.066736996
205	0x3d1b7b2a	0.037959255
206	0x3d96acb3	0.073571585
207	0x3ea58ee1	0.3233557
208	0x3e9b17e5	0.30291668
209	0x3e9724c3	0.29520234
210	0x3e9f4d46	0.31113642
211	0x3d322f0f	0.04350191
212	0xbcf043c1	-0.029329183
213	0x3e9d1746	0.3068182
214	0x3ea75ea0	0.3268938
215	0xbf530eab	-0.82444257
216	0xbd3921c3	-0.045198213
217	0x3d36c82e	0.0446245
218	0x3d91535b	0.07095977
219	0x3eb342f5	0.35012022
220	0x3e90533f	0.28188512
221	0x3eb366e6	0.35039443
222	0x3d407b38	0.04699251
223	0x3ea30f6a	0.31847697
224	0x3ba833fd	0.0051331506
225	0x3e9a79f9	0.30171183
226	0x3e92dfe4	0.2868644
227	0x3e8bd476	0.27310532
228	0x3e8fb2a9	0.28065994
229	0x3e9fc2a4	0.31203187
230	0x3b8bf5b3	0.004271233
231	0xbcee5a46	-0.02909578
232	0x3e9fe539	0.3122957
233	0xbd209cf2	-0.039212175
234	0x3e96941a	0.29409868
235	0xbd71bec8	-0.059019834
236	0xbce33578	-0.027735457
237	0xbd8d71f2	-0.06906499
238	0x3e8cef5b	0.27526364
239	0x3e8a4997	0.2700927
240	0x3dc25631	0.09489096
241	0x3e98cc60	0.29843426
242	0x3ea343f6	0.31887788
243	0x3ea6a3b3	0.32546768
244	0x3eb5207a	0.3537634
245	0x3e9fd096	0.31213826
246	0xbc8fb20c	-0.017540954
247	0xbc56d86e	-0.013113124
248	0x3e89a012	0.26879936
249	0x3eaffff0	0.34374952
250	0x3d0a340e	0.03374105
251	0xbd6d4ecf	-0.057936486
252	0xbcb69b84	-0.022290953
253	0xbe82f764	-0.2557937
254	0xbb2136c0	-0.0024599284
255	0x3e92af68	0.2864945

network.4.bias f4 [2]
0	0x3de84d4d	0.11342869
1	0x3e0439b5	0.12912638
